lite/examples/image_classification/android/app/src/main/assets/model_twincam_quant.tflite (tflite, 972320 bytes, 28 tensors)

model_2/conv2d_20/Conv2D/ReadVariableOp f4 [1, 3, 3, 48]
000000 a3 0d 51 bd cc 66 99 3d 04 22 a6 3d 30 ba c5 3d
       -0.051038396 0.0749031 0.08111957 0.09654653
000010 72 13 64 bc 7e f8 c6 3c 22 b8 7f bd 55 33 ff 3d
       -0.013920652 0.024288412 -0.062431462 0.12460963
000020 d8 63 f8 3c 64 10 87 3d 57 84 57 3d ad c2 f7 38
       0.030321047 0.06594923 0.052616443 0.00011814139
000030 17 78 39 bd 84 0c 6d 3c d7 0b a4 bd 44 0f b9 bd
       -0.045280542 0.014468316 -0.08010071 -0.09036115
000040 31 25 77 bd 1e fa b3 bd bc 83 31 bd b8 f6 ce bd
       -0.060338203 -0.087879404 -0.043338522 -0.101056516
000050 37 ae e5 bd d5 71 9a 3d b0 5c 4d bc 7c 81 bb 3d
       -0.112148695 0.07541243 -0.012534305 0.091555566
000060 69 0d 2d bd 9f fd d9 3d 3d e3 f1 bd 11 40 c9 3d
       -0.042249117 0.106440775 -0.118109204 0.09826673
000070 44 19 bb 3d 8d 52 e5 bc 97 fb 0d bd 63 75 83 bd
       0.091356784 -0.027993465 -0.034663763 -0.06418874
000080 ce cc a2 3c b2 2a 67 3d 38 ec ec 3d a4 0a af bc
       0.01987305 0.0564372 0.11568493 -0.021367379
000090 ab 23 1c 3d c3 f8 25 bd cf 8e e1 3d 02 c0 c7 3c
       0.038119953 -0.04052044 0.11013567 0.024383549
0000a0 12 14 6c bd f1 8f 50 3d a2 7c dc bd 17 2d 0b 3d
       -0.057636328 0.050918523 -0.10765959 0.033978548
0000b0 c8 09 b5 3d 4a fe d7 bd 48 1a 38 bd fd 68 28 bb
       0.08839756 -0.10546549 -0.04494694 -0.0025697344
0000c0 16 25 e6 3d d8 6d 84 bc 6e be eb bc 03 0a a5 bd
       0.11237542 -0.016165659 -0.028777327 -0.0805855
0000d0 37 28 13 3d f4 80 83 3d d3 91 ea bd b5 17 4b 3d
       0.035927024 0.0642108 -0.11453595 0.049583156
0000e0 ed 3c bc 3d b6 eb ba bd 6f e5 71 3d e8 50 b4 bd
       0.09191308 -0.091269895 0.059056696 -0.08804494
0000f0 97 bc b2 bd 21 33 00 3e 4c 6c ef 3d ab 19 8e bd
       -0.08727377 0.12519504 0.11690578 -0.069384895
000100 55 d2 4a 3d e5 28 22 bd d5 1b bc 3d eb 90 18 3e
       0.049516995 -0.03958978 0.09184996 0.14899032
000110 5f 9a fa 3d a8 d9 48 3c e6 4c b2 bd 0a ae 79 3d
       0.12236475 0.012258925 -0.087060735 0.060956992
000120 bc bc cf 3d b9 49 bd bd bc 87 97 bd a7 a9 46 3d
       0.1014342 -0.09242577 -0.07398936 0.048501637
000130 2c ca 2d 3c a5 6e 70 bd 62 2f 2f bd 3d b2 da 3c
       0.010607284 -0.05869927 -0.042769797 0.026696319
000140 9b 33 ba 3d 37 ef 1b bd 58 36 d0 bd 59 a9 18 3e
       0.09091874 -0.03806993 -0.10166615 0.14908351
000150 8f 21 c2 3d 02 1b bf 3d e2 22 fc 3d c1 92 ef bd
       0.09479057 0.09331323 0.12311341 -0.11697913
000160 52 05 6e 3c eb c3 f8 bc 2a 38 54 3c 33 99 2a bd
       0.014527636 -0.030366858 0.012952844 -0.04165001
000170 46 e5 c8 bd 05 73 48 bd f5 0a 8f 3d 68 20 d0 3c
       -0.098093554 -0.048937816 0.06984512 0.025406078
000180 09 7e ae bd 14 1d 74 bd 4d 28 f0 bc 71 33 3e 3d
       -0.08520133 -0.059598044 -0.029316092 0.046435777
000190 69 47 d6 3d b5 b9 3e 3d 28 9f d2 3c 73 f0 74 3d
       0.10462839 0.046563823 0.025710657 0.059799623
0001a0 d6 5e c1 3d 17 0f 5a 3c 0d 57 68 bd eb d4 0c bd
       0.09441917 0.013309262 -0.056723643 -0.034382742
0001b0 d6 e8 be 3d dd 97 d8 bd 0d d4 ed bc b4 53 d5 bc
       0.09321754 -0.105758406 -0.029031778 -0.02604089
0001c0 5f d0 82 bd 40 d8 b7 bd 01 0a c9 bd f4 b6 4c 3d
       -0.063874 -0.08976793 -0.09816361 0.049979165
0001d0 85 24 5c 3d 31 1e c0 3d 04 e0 91 bd ad 42 be bc
       0.053745765 0.093807586 -0.07122806 -0.023225153
0001e0 1e 1f 86 3d ae d2 dd 3d 7c 0f 88 bc f7 13 4d bd
       0.06548904 0.108311996 -0.016608946 -0.050067868
0001f0 2b 51 7f 3d d2 3f ee 3d d4 5a 00 bc f4 cf a8 3d
       0.062333267 0.116332665 -0.007834155 0.08242789
000200 32 ad 27 3d 68 1b d3 3b 9a b4 8b bd 2a 7b 48 3c
       0.040936656 0.006442476 -0.068215564 0.012236396
000210 d3 1d be 3d 1f c6 32 3d 63 cc c6 3d 9e 87 43 bd
       0.09283032 0.043645974 0.097069524 -0.047736757
000220 f1 d8 ad 3d 59 f0 d8 bd 63 dd 22 3d 69 6c 2b 3d
       0.08488644 -0.10592718 0.039761912 0.041851435
000230 1f 62 b1 3d 7d 8b 99 bb e2 e9 92 bd b1 2d aa 3c
       0.08661293 -0.0046858178 -0.07173516 0.02077374
000240 46 ee 06 3d f3 d4 70 bd fb 3c bc 3d 87 5b 08 bd
       0.03294208 -0.058796834 0.091913186 -0.033290412
000250 7e a9 8e 3d 43 31 0f 3d a2 bf 24 bd 3f 72 a0 3d
       0.06965922 0.03495909 -0.040221818 0.07834291
000260 36 b1 63 3b ad 5b 90 bd de c1 b5 3d 6f 51 c3 3d
       0.0034743077 -0.07048736 0.08874868 0.095370166
000270 e7 27 41 3d 20 65 6e bc e4 41 c1 3d d2 f4 d2 3c
       0.047157194 -0.014550477 0.09436396 0.025751505
000280 c2 f3 80 3d 8a 81 68 3d 65 59 14 3e 8f c9 c3 bd
       0.06296493 0.056764163 0.14487226 -0.095599286
000290 ce 7a 3d bc 6c 16 e7 3c f0 26 a6 bd b7 1b 0d 3d
       -0.011564923 0.028208934 -0.081128955 0.03445026
0002a0 34 c0 30 bd d5 7b db 3c b8 6e 6e bd ed a5 d8 3d
       -0.04315205 0.026792446 -0.05821106 0.10578523
0002b0 a4 a8 9a 3c f8 81 51 bc 1b 04 64 bd 8f a7 33 3c
       0.018879242 -0.012787335 -0.055667978 0.010965242
0002c0 72 ba ad bd 95 84 bf 3d b5 1d d2 3c c3 74 07 be
       -0.08482827 0.0935146 0.025648931 -0.13228135
0002d0 70 b3 8e bc d2 b4 e5 bb a4 c5 00 bd b6 32 b0 bc
       -0.017419547 -0.007010081 -0.031438485 -0.021508556
0002e0 19 ba c8 bd d8 82 82 3d e9 35 d6 bd 51 99 39 bc
       -0.0980112 0.06372613 -0.10459501 -0.011328057
0002f0 de a1 88 3c 62 dc c4 3d 13 4f d5 bd 03 d1 cd bd
       0.016678747 0.09612347 -0.10415473 -0.100496314
000300 b3 a3 f0 3d 7b 3b c2 bb 6f 21 69 3d fc c7 f7 bd
       0.11749973 -0.005927501 0.05691665 -0.12098691
000310 dc 84 36 3d 2a ba f5 3d ac 53 aa bd 65 ce 3a 3d
       0.0445603 0.119983986 -0.083167404 0.04560699
000320 a9 8e 0c 3d 32 7b 93 3c d6 39 de 3d 1d a4 46 bd
       0.03431574 0.01800308 0.10850875 -0.048496354
000330 74 d2 e2 3d 50 aa c8 bc 18 37 c0 3d 47 9e 6a bc
       0.11075297 -0.024495274 0.09385508 -0.014319963
000340 e2 a2 51 bc da 87 32 3d 11 43 2d bd a2 cc 3f 3d
       -0.012795182 0.04358659 -0.042300288 0.046826012
000350 fd 52 73 3c c0 e1 e8 3d 6f d3 d6 bd ae 00 23 3c
       0.014851329 0.113711834 -0.104895465 0.0099488925
000360 7a f0 d8 bc c5 3c f6 bd b8 ec fd 3d ee 04 21 3d
       -0.026481856 -0.120233096 0.12398666 0.039311342
000370 7e 7d 1b 3d ef b8 31 bd 0a d5 54 3c 8f b6 8f 3d
       0.037961476 -0.043389257 0.012990246 0.07017242
000380 ce 37 9e 3d 2d 3a de 3d 48 e2 1e bc cd cb 1d bc
       0.07725488 0.1085094 -0.009697504 -0.009631109
000390 32 0e 02 3e 86 22 c7 3d 63 47 60 3d d7 0a fd 3d
       0.12700728 0.09723382 0.05475558 0.12355583
0003a0 36 f2 5a 3d 3f 5c 9e 3d 7d 61 c5 3c 60 54 fe 3d
       0.053453647 0.07732438 0.024094338 0.12418437
0003b0 9f 3b c7 bd a9 0c e0 3b e3 b8 f8 bd cf 1d ad 3d
       -0.09728169 0.0068374467 -0.12144639 0.08452951
0003c0 ea 16 9d 3d 25 bf 43 bd 87 1b 10 bd ef e1 d8 3d
       0.07670386 -0.04778971 -0.035182502 0.105899684
0003d0 dc ec bd bd 57 e5 0d bd 86 2d e6 bd ae 4f cc bc
       -0.09273693 -0.034642544 -0.11239152 -0.024940338
0003e0 58 db 4f 3b 00 7e c2 3c 43 4b 0e be b2 cf 60 bd
       0.0031716432 0.023741722 -0.13895898 -0.054885574
0003f0 92 55 c7 bd ff eb 44 ba af 88 85 3d 38 32 d6 bd
       -0.09733118 -0.0007511973 0.06520211 -0.10458797

model_2/conv2d_20/Conv2D_bias f4 [48]
000000 ff 72 37 bc ac 16 15 bb e5 c7 ae bc e8 6c 65 3c
       -0.011196851 -0.002274911 -0.021335552 0.014003016
000010 43 b8 bf bc 78 05 29 bb 00 00 00 00 d4 25 3a 39
       -0.023403293 -0.0025790613 0.0 0.00017752434
000020 10 f0 2b bd cd 3b ea 3c 74 8d 04 3b 37 05 1d 3d
       -0.04197699 0.028592968 0.0020225914 0.03833505
000030 cd bc b7 bb 17 3a 0a bc b4 60 95 bb c6 29 4e 3c
       -0.0056072236 -0.008436701 -0.004558647 0.012583202
000040 0f 72 04 bd 7a b9 00 39 c7 c4 d1 3a 81 62 62 3c
       -0.032335337 0.00012276127 0.0016004079 0.0138174305
000050 68 11 e1 3b 61 6d 56 bc 00 00 00 00 29 11 51 bc
       0.00686853 -0.013087601 0.0 -0.012760439
000060 aa cd 1e 3d 51 e2 d3 3c 1a b3 9e 3c a4 99 be bb
       0.038770355 0.025864752 0.019372512 -0.0058166552
000070 f0 61 cb bc 27 92 88 3a 23 52 92 3b 8a fc 6b 3d
       -0.024826974 0.0010419533 0.004465358 0.057613887
000080 96 a0 af 3b 90 59 20 bc a2 f2 09 3d 40 a8 cb 3c
       0.0053597195 -0.009786978 0.03367866 0.024860501
000090 89 c8 1a bb d6 59 fd 3b 1d e4 f0 bc 43 3e b3 3c
       -0.0023618063 0.0077316565 -0.029405648 0.021880275
0000a0 8d 71 77 bc 36 43 1a 3d fb 43 49 3d 68 1d fd bb
       -0.015102756 0.037661754 0.049137097 -0.0077244528
0000b0 d9 fd 6e 3d 97 0e 6c ba 48 c7 6f 3d 47 18 ec bb
       0.058347557 -0.00090048596 0.05853966 -0.0072050425

model_2/conv2d_21/Conv2D/ReadVariableOp i1 [48, 3, 3, 48] scale=0.0025349804 zero_point=0
000000 fe 0a f0 f7 fa 06 13 1d 17 08 20 0e 09 17 08 ed
       -0.005069961 0.025349803 -0.040559687 -0.022814823 -0.0152098825 0.0152098825 0.04816463 0.07351443 0.05830455 0.020279843 0.08111937 0.035489727 0.022814823 0.05830455 0.020279843 -0.04816463
000010 08 18 13 da 18 e1 1e e5 f7 39 22 0e f8 12 e0 f6
       0.020279843 0.06083953 0.04816463 -0.09632926 0.06083953 -0.078584395 0.07604941 -0.06844447 -0.022814823 0.14449388 0.08618934 0.035489727 -0.020279843 0.045629647 -0.08111937 -0.025349803
000020 0b 04 13 1c 00 e9 e4 ff 08 ef 04 dc e9 ea 1c 1f
       0.027884785 0.010139922 0.04816463 0.07097945 0.0 -0.05830455 -0.07097945 -0.0025349804 0.020279843 -0.04309467 0.010139922 -0.09125929 -0.05830455 -0.05576957 0.07097945 0.078584395
000030 e2 e2 ee f9 fe 1d 11 e5 10 26 0b f8 e0 f3 11 0d
       -0.07604941 -0.07604941 -0.045629647 -0.017744863 -0.005069961 0.07351443 0.04309467 -0.06844447 0.040559687 0.09632926 0.027884785 -0.020279843 -0.08111937 -0.032954745 0.04309467 0.032954745
000040 ec e7 f9 1d 05 fd f8 1b 0b 1d f8 ee 09 24 0e f9
       -0.050699607 -0.06337451 -0.017744863 0.07351443 0.012674902 -0.0076049413 -0.020279843 0.06844447 0.027884785 0.07351443 -0.020279843 -0.045629647 0.022814823 0.09125929 0.035489727 -0.017744863
000050 0b 16 f5 fc 01 ff f4 18 ed e7 03 de 22 19 1b 19
       0.027884785 0.05576957 -0.027884785 -0.010139922 0.0025349804 -0.0025349804 -0.030419765 0.06083953 -0.04816463 -0.06337451 0.0076049413 -0.08618934 0.08618934 0.06337451 0.06844447 0.06337451
000060 04 0c 03 14 ee f4 13 f0 eb 1e f4 f2 e0 f1 f3 e4
       0.010139922 0.030419765 0.0076049413 0.050699607 -0.045629647 -0.030419765 0.04816463 -0.040559687 -0.05323459 0.07604941 -0.030419765 -0.035489727 -0.08111937 -0.038024705 -0.032954745 -0.07097945
000070 fb 1c ee fc 1b 10 1f 02 06 01 fd 23 e4 07 1d f4
       -0.012674902 0.07097945 -0.045629647 -0.010139922 0.06844447 0.040559687 0.078584395 0.005069961 0.0152098825 0.0025349804 -0.0076049413 0.088724315 -0.07097945 0.017744863 0.07351443 -0.030419765
000080 23 1f 06 ff ee 20 f8 04 ef f8 1d f4 f8 05 27 15
       0.088724315 0.078584395 0.0152098825 -0.0025349804 -0.045629647 0.08111937 -0.020279843 0.010139922 -0.04309467 -0.020279843 0.07351443 -0.030419765 -0.020279843 0.012674902 0.098864235 0.05323459
000090 04 08 df 02 f5 02 e6 f9 f7 00 43 ef e5 14 fb 1b
       0.010139922 0.020279843 -0.08365435 0.005069961 -0.027884785 0.005069961 -0.06590949 -0.017744863 -0.022814823 0.0 0.16984369 -0.04309467 -0.06844447 0.050699607 -0.012674902 0.06844447
0000a0 f7 eb f7 e0 1d fc 14 03 07 3e 1d 34 02 07 0d 16
       -0.022814823 -0.05323459 -0.022814823 -0.08111937 0.07351443 -0.010139922 0.050699607 0.0076049413 0.017744863 0.15716879 0.07351443 0.13181898 0.005069961 0.017744863 0.032954745 0.05576957
0000b0 21 1c 0f 30 e0 17 e9 2a 04 08 e2 07 28 f3 21 d8
       0.08365435 0.07097945 0.038024705 0.12167906 -0.08111937 0.05830455 -0.05830455 0.10646918 0.010139922 0.020279843 -0.07604941 0.017744863 0.10139921 -0.032954745 0.08365435 -0.10139921
0000c0 f8 ee 01 22 de f3 e1 15 f0 0e d7 24 df fc ea eb
       -0.020279843 -0.045629647 0.0025349804 0.08618934 -0.08618934 -0.032954745 -0.078584395 0.05323459 -0.040559687 0.035489727 -0.1039342 0.09125929 -0.08365435 -0.010139922 -0.05576957 -0.05323459
0000d0 f9 18 13 1f 1b f4 03 de 27 1e 18 0b 17 fe 21 0e
       -0.017744863 0.06083953 0.04816463 0.078584395 0.06844447 -0.030419765 0.0076049413 -0.08618934 0.098864235 0.07604941 0.06083953 0.027884785 0.05830455 -0.005069961 0.08365435 0.035489727
0000e0 1b fa 0a 32 ea ec 0d 05 e0 e5 fd e5 ee 17 14 15
       0.06844447 -0.0152098825 0.025349803 0.12674902 -0.05576957 -0.050699607 0.032954745 0.012674902 -0.08111937 -0.06844447 -0.0076049413 -0.06844447 -0.045629647 0.05830455 0.050699607 0.05323459
0000f0 1c 0e e1 f4 fb 1f ee 11 15 eb e0 10 00 fa f3 fc
       0.07097945 0.035489727 -0.078584395 -0.030419765 -0.012674902 0.078584395 -0.045629647 0.04309467 0.05323459 -0.05323459 -0.08111937 0.040559687 0.0 -0.0152098825 -0.032954745 -0.010139922

model_2/conv2d_21/Conv2D_bias f4 [48]
000000 56 dd 44 3c 98 be 9a 3b 30 f4 fa ba a4 bc df 3b
       0.012015661 0.0047224276 -0.001914626 0.0068279076
000010 1d 86 d4 3c 60 f7 9c ba 62 11 9c bb 04 c3 f6 3a
       0.025942856 -0.0011975579 -0.0047628144 0.001882643
000020 a0 b5 0a bc cb fc c7 bc 38 77 26 3d 3d 33 2e ba
       -0.008466154 -0.024412533 0.04064104 -0.00066452083
000030 24 8f 41 bc 39 67 92 bb 5a b4 8d 3d 12 55 24 ba
       -0.011813913 -0.0044678715 0.06919165 -0.000626878
000040 a1 3a 04 3c f1 cc ac bb a4 30 a5 3c c3 38 86 3a
       0.008070619 -0.0052734544 0.020164795 0.0010240305
000050 8f 1d 84 3a 53 a6 d8 ba 33 c8 90 bc a6 14 85 bb
       0.001007961 -0.0016529061 -0.017673587 -0.0040612994
000060 78 2c b1 3d 69 fb 91 bc 4f ae a7 3b 00 00 00 00
       0.0865106 -0.017820077 0.0051172148 0.0
000070 7a 71 6a 3b cb d6 01 bc 73 51 f6 ba bd 9c 9d 3c
       0.0035773204 -0.007924746 -0.0018792584 0.019239778
000080 00 00 00 00 be d9 e4 3a 7e fd e2 3a d4 3c 0b 3c
       0.0 0.0017459912 0.0017317978 0.008498389
000090 5b 43 49 bb e8 fa bc 3b ed b2 14 3c 8a d8 91 b9
       -0.0030710313 0.005767215 0.009075862 -0.0002781789
0000a0 69 a4 93 b9 cb a2 2d bb 76 5e 8c 3a e2 af 7a 3b
       -0.0002816052 -0.0026494737 0.0010709304 0.0038251807
0000b0 d9 8b ab bb 69 3d 61 bb ee 6a 8b ba d5 b5 99 3a
       -0.005235177 -0.0034368879 -0.0010636726 0.0011727164

model_2/conv2d_22/Conv2D/ReadVariableOp i1 [64, 3, 3, 48] scale=0.0020881481 zero_point=0
000000 18 12 0e f6 e7 f8 e9 f6 ee 0c ea 0a 23 0d ed de
       0.050115556 0.037586667 0.029234074 -0.020881481 -0.052203704 -0.016705185 -0.048027407 -0.020881481 -0.037586667 0.025057778 -0.04593926 0.020881481 0.07308519 0.027145926 -0.039674815 -0.07099704
000010 10 f6 e4 df e0 0e 2a f4 10 ea 03 f5 15 18 fe 15
       0.03341037 -0.020881481 -0.058468148 -0.068908885 -0.06682074 0.029234074 0.08770222 -0.025057778 0.03341037 -0.04593926 0.0062644444 -0.02296963 0.04385111 0.050115556 -0.0041762963 0.04385111
000020 f4 01 ea e6 08 27 ff e8 1b e2 0d f9 e2 09 02 21
       -0.025057778 0.0020881481 -0.04593926 -0.05429185 0.016705185 0.08143778 -0.0020881481 -0.050115556 0.05638 -0.062644444 0.027145926 -0.014617037 -0.062644444 0.018793333 0.0041762963 0.068908885
000030 e1 fe 15 f7 f9 15 df 20 26 27 ec 25 f5 1c f7 1b
       -0.0647326 -0.0041762963 0.04385111 -0.018793333 -0.014617037 0.04385111 -0.068908885 0.06682074 0.07934963 0.08143778 -0.041762963 0.07726148 -0.02296963 0.058468148 -0.018793333 0.05638
000040 19 fc ea 1a ff 04 0b 1b 05 0c 1d e3 02 ff 19 ef
       0.052203704 -0.008352593 -0.04593926 0.05429185 -0.0020881481 0.008352593 0.02296963 0.05638 0.010440741 0.025057778 0.060556296 -0.060556296 0.0041762963 -0.0020881481 0.052203704 -0.03549852
000050 1a fc 1a 23 13 05 ee 07 01 dc ef 25 1b 04 01 e1
       0.05429185 -0.008352593 0.05429185 0.07308519 0.039674815 0.010440741 -0.037586667 0.014617037 0.0020881481 -0.07517333 -0.03549852 0.07726148 0.05638 0.008352593 0.0020881481 -0.0647326
000060 e4 17 06 07 db 1f e6 e3 04 21 0d 01 1c 00 c9 1a
       -0.058468148 0.048027407 0.012528889 0.014617037 -0.07726148 0.0647326 -0.05429185 -0.060556296 0.008352593 0.068908885 0.027145926 0.0020881481 0.058468148 0.0 -0.11484815 0.05429185
000070 da f0 0c e7 df ef e6 ee c9 e9 e9 f2 ed 0d 18 fb
       -0.07934963 -0.03341037 0.025057778 -0.052203704 -0.068908885 -0.03549852 -0.05429185 -0.037586667 -0.11484815 -0.048027407 -0.048027407 -0.029234074 -0.039674815 0.027145926 0.050115556 -0.010440741
000080 e5 28 df f1 27 ec 0a e3 06 0a 23 12 21 df 24 15
       -0.05638 0.083525926 -0.068908885 -0.031322222 0.08143778 -0.041762963 0.020881481 -0.060556296 0.012528889 0.020881481 0.07308519 0.037586667 0.068908885 -0.068908885 0.07517333 0.04385111
000090 29 17 1d ed e0 f5 13 e1 27 1a e4 f0 fd eb cc ee
       0.08561407 0.048027407 0.060556296 -0.039674815 -0.06682074 -0.02296963 0.039674815 -0.0647326 0.08143778 0.05429185 -0.058468148 -0.03341037 -0.0062644444 -0.04385111 -0.1085837 -0.037586667
0000a0 25 fe 0d 11 00 00 0c db c0 ef 10 18 23 16 0b 0b
       0.07726148 -0.0041762963 0.027145926 0.03549852 0.0 0.0 0.025057778 -0.07726148 -0.13364148 -0.03549852 0.03341037 0.050115556 0.07308519 0.04593926 0.02296963 0.02296963
0000b0 f7 ee f8 03 2c 04 33 0a ee 08 ff 17 13 f7 0e f5
       -0.018793333 -0.037586667 -0.016705185 0.0062644444 0.09187852 0.008352593 0.10649556 0.020881481 -0.037586667 0.016705185 -0.0020881481 0.048027407 0.039674815 -0.018793333 0.029234074 -0.02296963
0000c0 0a fb 10 03 c2 fc fa e5 ea e6 f3 e2 fe 10 ff f0
       0.020881481 -0.010440741 0.03341037 0.0062644444 -0.1294652 -0.008352593 -0.012528889 -0.05638 -0.04593926 -0.05429185 -0.027145926 -0.062644444 -0.0041762963 0.03341037 -0.0020881481 -0.03341037
0000d0 f8 18 da 18 11 21 23 00 cd e8 1f eb 04 0b 1a 17
       -0.016705185 0.050115556 -0.07934963 0.050115556 0.03549852 0.068908885 0.07308519 0.0 -0.10649556 -0.050115556 0.0647326 -0.04385111 0.008352593 0.02296963 0.05429185 0.048027407
0000e0 f1 f9 1f 1b 27 dd 23 11 17 1b 24 0b 0b 0e 0d ef
       -0.031322222 -0.014617037 0.0647326 0.05638 0.08143778 -0.07308519 0.07308519 0.03549852 0.048027407 0.05638 0.07517333 0.02296963 0.02296963 0.029234074 0.027145926 -0.03549852
0000f0 00 e0 07 23 bf 1b f6 26 23 21 dc f2 e4 21 e3 26
       0.0 -0.06682074 0.014617037 0.07308519 -0.13572963 0.05638 -0.020881481 0.07934963 0.07308519 0.068908885 -0.07517333 -0.029234074 -0.058468148 0.068908885 -0.060556296 0.07934963

model_2/conv2d_22/Conv2D_bias f4 [64]
000000 9e a5 4b ba a4 6e 5c 39 63 87 d2 bb 0c cd 18 bc
       -0.00077685143 0.00021022052 -0.0064248308 -0.009326231
000010 ee b9 b0 bb 52 b4 aa 3c d6 4d 85 ba 72 46 0d 3a
       -0.0053932583 0.020837937 -0.0010170292 0.00053892203
000020 45 a3 2b 3b dd c7 ce 3b ce 05 0a ba 5c 7e 46 bc
       0.0026189846 0.0063104467 -0.0005265147 -0.012115087
000030 e9 41 3d 3b 2a 12 e6 3b 99 6d bf ba 64 37 f2 bb
       0.0028878397 0.0070212083 -0.0014604806 -0.007391857
000040 07 7f af 3b 2c 76 2e bc e9 de 4f 3b bc 22 a1 bb
       0.005355719 -0.010648292 0.0031718558 -0.0049174707
000050 21 9e 93 bb f1 f5 b6 bc 7c c9 f3 bb 09 85 fd 3a
       -0.0045049344 -0.02233407 -0.0074397903 0.0019342016
000060 4e ee 9e 3c 6d e3 46 bc 93 5d 18 3b b4 a1 10 bb
       0.019400742 -0.0121391835 0.0023249134 -0.0022069039
000070 94 45 92 bb 75 41 f7 bb 97 fa 12 bd 35 93 81 3c
       -0.0044638608 -0.007545645 -0.035883512 0.015817264
000080 51 67 8a b9 0d fc 1a bc d9 97 47 bc f4 d1 2a 3c
       -0.00026398388 -0.009459508 -0.012182199 0.010426033
000090 54 56 01 3b aa 7e bf 39 5c ba 93 3b c0 29 8a 3b
       0.0019735293 0.0003652473 0.0045082998 0.004216403
0000a0 c2 7a f4 bb 0e 93 d9 3b e9 d3 4b bb 35 9c 00 3b
       -0.007460923 0.0066398447 -0.003110165 0.0019624357
0000b0 b4 e3 1c 3b 82 9f ba bb 40 a8 88 3b a5 4a 8f 3b
       0.0023939433 -0.0056952843 0.0041704476 0.004372912
0000c0 76 91 d8 3c ef c9 16 bc 86 76 d0 bb 1a 67 85 3c
       0.026436549 -0.009203418 -0.0063617853 0.016284514
0000d0 1c c1 5f bb 6f f1 0d 3c 98 99 74 ba 4a 6c f7 3b
       -0.0034142202 0.008663519 -0.00093307486 0.007550751
0000e0 20 4e bb 3b 56 41 27 ba d6 20 85 3c 34 5f d6 3c
       0.0057161003 -0.000638028 0.016251009 0.026168443
0000f0 55 75 8a 3a ee d5 11 3a d0 b4 92 3b ac 36 0b bb
       0.0010563532 0.0005563189 0.004477121 -0.0021242304

model_2/conv2d_23/Conv2D/ReadVariableOp i1 [64, 3, 3, 64] scale=0.002833774 zero_point=0
000000 e8 01 ed e6 03 ff fd 05 fc e4 0d f8 f3 fe 0b fb
       -0.068010576 0.002833774 -0.053841706 -0.07367813 0.008501322 -0.002833774 -0.008501322 0.014168871 -0.011335096 -0.07934567 0.036839064 -0.022670193 -0.036839064 -0.005667548 0.031171516 -0.014168871
000010 ef fb ec f6 fb 03 17 f1 0d f7 f7 fd 17 05 f9 03
       -0.048174158 -0.014168871 -0.056675483 -0.028337741 -0.014168871 0.008501322 0.06517681 -0.042506613 0.036839064 -0.025503967 -0.025503967 -0.008501322 0.06517681 0.014168871 -0.019836418 0.008501322
000020 0f fd f4 fe 06 f4 e6 f3 fc 14 11 e4 0b 10 04 f6
       0.042506613 -0.008501322 -0.034005288 -0.005667548 0.017002644 -0.034005288 -0.07367813 -0.036839064 -0.011335096 0.056675483 0.048174158 -0.07934567 0.031171516 0.045340385 0.011335096 -0.028337741
000030 fc 07 f9 08 01 ec 0b e6 f2 f8 f7 04 e5 08 f1 eb
       -0.011335096 0.019836418 -0.019836418 0.022670193 0.002833774 -0.056675483 0.031171516 -0.07367813 -0.039672837 -0.022670193 -0.025503967 0.011335096 -0.0765119 0.022670193 -0.042506613 -0.059509255
000040 11 04 09 0d ec 07 e1 05 09 f0 fd 28 01 0b e7 e6
       0.048174158 0.011335096 0.025503967 0.036839064 -0.056675483 0.019836418 -0.087846994 0.014168871 0.025503967 -0.045340385 -0.008501322 0.113350965 0.002833774 0.031171516 -0.07084435 -0.07367813
000050 e3 00 e2 f3 0d 09 08 f2 f4 eb 0f 10 16 13 f1 0f
       -0.08217945 0.0 -0.085013226 -0.036839064 0.036839064 0.025503967 0.022670193 -0.039672837 -0.034005288 -0.059509255 0.042506613 0.045340385 0.06234303 0.053841706 -0.042506613 0.042506613
000060 fe f5 f4 25 fe 1a eb 0d 17 e4 0d e1 0f f0 01 01
       -0.005667548 -0.031171516 -0.034005288 0.104849644 -0.005667548 0.07367813 -0.059509255 0.036839064 0.06517681 -0.07934567 0.036839064 -0.087846994 0.042506613 -0.045340385 0.002833774 0.002833774
000070 f3 0a ea 06 eb 12 14 1e 00 02 f6 f4 e5 f9 f3 ec
       -0.036839064 0.028337741 -0.06234303 0.017002644 -0.059509255 0.051007934 0.056675483 0.085013226 0.0 0.005667548 -0.028337741 -0.034005288 -0.0765119 -0.019836418 -0.036839064 -0.056675483
000080 f3 e5 05 18 08 09 08 00 fd 06 0c 04 10 f5 f2 08
       -0.036839064 -0.0765119 0.014168871 0.068010576 0.022670193 0.025503967 0.022670193 0.0 -0.008501322 0.017002644 0.034005288 0.011335096 0.045340385 -0.031171516 -0.039672837 0.022670193
000090 e8 14 fe f9 04 fa 16 f9 f1 f3 0f 05 26 f6 eb ff
       -0.068010576 0.056675483 -0.005667548 -0.019836418 0.011335096 -0.017002644 0.06234303 -0.019836418 -0.042506613 -0.036839064 0.042506613 0.014168871 0.10768341 -0.028337741 -0.059509255 -0.002833774
0000a0 eb 04 0f 11 e7 08 0b 01 0d e5 e9 03 fa 06 fe 13
       -0.059509255 0.011335096 0.042506613 0.048174158 -0.07084435 0.022670193 0.031171516 0.002833774 0.036839064 -0.0765119 -0.06517681 0.008501322 -0.017002644 0.017002644 -0.005667548 0.053841706
0000b0 f9 f3 f8 0e ea 08 ef 1e 11 ea f2 0e 17 12 f4 03
       -0.019836418 -0.036839064 -0.022670193 0.039672837 -0.06234303 0.022670193 -0.048174158 0.085013226 0.048174158 -0.06234303 -0.039672837 0.039672837 0.06517681 0.051007934 -0.034005288 0.008501322
0000c0 10 08 0c c7 0a f1 07 14 0b f8 0a ff f5 f6 f8 f7
       0.045340385 0.022670193 0.034005288 -0.16152512 0.028337741 -0.042506613 0.019836418 0.056675483 0.031171516 -0.022670193 0.028337741 -0.002833774 -0.031171516 -0.028337741 -0.022670193 -0.025503967
0000d0 f5 e8 ef 0b 0f 08 00 11 e8 ff 12 0f e3 f2 05 ee
       -0.031171516 -0.068010576 -0.048174158 0.031171516 0.042506613 0.022670193 0.0 0.048174158 -0.068010576 -0.002833774 0.051007934 0.042506613 -0.08217945 -0.039672837 0.014168871 -0.051007934
0000e0 fe ee 11 f5 1c 00 f7 10 fd 1a 00 0a 11 f2 10 0d
       -0.005667548 -0.051007934 0.048174158 -0.031171516 0.07934567 0.0 -0.025503967 0.045340385 -0.008501322 0.07367813 0.0 0.028337741 0.048174158 -0.039672837 0.045340385 0.036839064
0000f0 fd ef 0a fe f1 09 04 c5 ff f5 09 0c fc ee 0e 04
       -0.008501322 -0.048174158 0.028337741 -0.005667548 -0.042506613 0.025503967 0.011335096 -0.16719267 -0.002833774 -0.031171516 0.025503967 0.034005288 -0.011335096 -0.051007934 0.039672837 0.011335096

model_2/conv2d_23/Conv2D_bias f4 [64]
000000 31 02 1b 3c 4f 18 c2 ba bb ae d7 ba 91 a3 67 3c
       0.009460972 -0.001480827 -0.0016455272 0.014138118
000010 25 3a e5 3c 06 63 eb 3a fe 59 78 3c 69 ce 65 bb
       0.027981827 0.0017958588 0.015158175 -0.0035065657
000020 23 6f 4a 3c 90 d8 89 3b e1 7b 1a 3d 71 77 c8 3c
       0.012355599 0.0042067245 0.037715796 0.024471017
000030 4b e2 24 3b 55 82 0b bc 93 2f 20 3c 9b bc 5b 3b
       0.0025159295 -0.00851496 0.009776968 0.0033529166
000040 ba 66 62 3b 46 82 0e 3b 3c b6 46 3d 25 5c 1e 3c
       0.0034546093 0.002174513 0.048513636 0.009665524
000050 f5 8d 1a 3b 17 f1 d8 b9 4d 39 29 3d c6 9f 65 bb
       0.0023583148 -0.00041378356 0.041314412 -0.003503786
000060 15 ab 66 3b e9 e6 96 bc 98 63 65 3b aa e3 3e 3b
       0.0035197188 -0.018420653 0.003500199 0.0029127398
000070 13 de f7 bb 4f 0b 20 bb 63 e4 21 ba 19 71 ec bb
       -0.007564315 -0.0024420803 -0.0006175695 -0.0072156307
000080 92 9e 79 bc 35 6e 2a 3c 73 60 7d 3c 85 f6 a5 3c
       -0.01523556 0.010402252 0.01546489 0.020259151
000090 06 35 d9 3b 58 78 b6 3c cd 49 74 ba b6 4e 26 3b
       0.0066286353 0.022274181 -0.00093188585 0.0025376505
0000a0 b8 43 3f 3b 37 3e e8 bc 01 13 80 3b 46 24 72 bb
       0.002918465 -0.028349979 0.0039085154 -0.003694789
0000b0 ec f2 19 ba 19 65 79 bc ae e1 d4 b9 73 01 09 3b
       -0.0005872685 -0.0152218575 -0.00040603935 0.0020905405
0000c0 a2 8a 37 bc 77 b7 04 3a 1a 57 31 3b 27 2e 32 3b
       -0.011202486 0.0005062739 0.0027059973 0.0027188153
0000d0 bc 62 0d 3b 22 5f ac bb f0 80 52 ba 20 41 b8 bb
       0.0021573743 -0.005260364 -0.00080300774 -0.005622998
0000e0 62 40 8e 3a 60 10 a7 3b 4b d2 83 3b d1 ee 8a bc
       0.0010852928 0.0050983876 0.0040228716 -0.01695958
0000f0 91 cf ea 3b 9f 2b 57 bc c3 7f 4b bc 4c fc 9f 3c
       0.007165857 -0.013132959 -0.0124205975 0.019529484

model_2/conv2d_24/Conv2D/ReadVariableOp i1 [96, 3, 3, 64] scale=0.0021545123 zero_point=0
000000 db 26 fe 2d fb 0a 19 0f 18 fd 0c 15 08 0d e9 f5
       -0.07971696 0.081871465 -0.0043090247 0.09695306 -0.010772562 0.021545123 0.05386281 0.032317683 0.051708296 -0.006463537 0.025854148 0.04524476 0.017236099 0.02800866 -0.04955378 -0.023699636
000010 0a 03 f8 09 fb 1f 10 03 04 01 20 05 e9 19 e6 1b
       0.021545123 0.006463537 -0.017236099 0.019390611 -0.010772562 0.06678988 0.034472197 0.006463537 0.008618049 0.0021545123 0.068944395 0.010772562 -0.04955378 0.05386281 -0.05601732 0.05817183
000020 19 30 07 f8 15 e5 01 f4 14 df fe 0e f8 0d 03 f6
       0.05386281 0.10341659 0.015081586 -0.017236099 0.04524476 -0.05817183 0.0021545123 -0.025854148 0.043090247 -0.07109891 -0.0043090247 0.030163173 -0.017236099 0.02800866 0.006463537 -0.021545123
000030 1e f6 ed 0a 1b 01 01 20 fa 02 24 20 29 10 1d e8
       0.064635366 -0.021545123 -0.040935732 0.021545123 0.05817183 0.0021545123 0.0021545123 0.068944395 -0.012927074 0.0043090247 0.077562444 0.068944395 0.08833501 0.034472197 0.06248086 -0.051708296
000040 11 09 fd 0d 16 01 02 f3 24 15 1a 03 22 e7 11 18
       0.03662671 0.019390611 -0.006463537 0.02800866 0.04739927 0.0021545123 0.0043090247 -0.02800866 0.077562444 0.04524476 0.05601732 0.006463537 0.07325342 -0.05386281 0.03662671 0.051708296
000050 1e 01 23 f5 0f 0c 0a e5 07 20 fa 20 e9 f8 0e f6
       0.064635366 0.0021545123 0.07540793 -0.023699636 0.032317683 0.025854148 0.021545123 -0.05817183 0.015081586 0.068944395 -0.012927074 0.068944395 -0.04955378 -0.017236099 0.030163173 -0.021545123
000060 fd 13 03 ee fc f3 fc 03 19 de f8 18 f6 f7 07 12
       -0.006463537 0.040935732 0.006463537 -0.038781222 -0.008618049 -0.02800866 -0.008618049 0.006463537 0.05386281 -0.07325342 -0.017236099 0.051708296 -0.021545123 -0.019390611 0.015081586 0.038781222
000070 10 ed f5 02 04 ea fb 08 13 27 23 05 27 00 e3 0f
       0.034472197 -0.040935732 -0.023699636 0.0043090247 0.008618049 -0.04739927 -0.010772562 0.017236099 0.040935732 0.08402598 0.07540793 0.010772562 0.08402598 0.0 -0.06248086 0.032317683
000080 0a 27 ff 25 ea 16 ff 17 fb ef 22 f8 24 01 15 fc
       0.021545123 0.08402598 -0.0021545123 0.07971696 -0.04739927 0.04739927 -0.0021545123 0.04955378 -0.010772562 -0.03662671 0.07325342 -0.017236099 0.077562444 0.0021545123 0.04524476 -0.008618049
000090 1d 05 0e f4 0a 20 0e ea fa 01 08 f7 f3 f9 05 f7
       0.06248086 0.010772562 0.030163173 -0.025854148 0.021545123 0.068944395 0.030163173 -0.04739927 -0.012927074 0.0021545123 0.017236099 -0.019390611 -0.02800866 -0.015081586 0.010772562 -0.019390611
0000a0 22 1f f9 f6 05 05 fd f5 01 09 24 11 21 f0 f8 10
       0.07325342 0.06678988 -0.015081586 -0.021545123 0.010772562 0.010772562 -0.006463537 -0.023699636 0.0021545123 0.019390611 0.077562444 0.03662671 0.07109891 -0.034472197 -0.017236099 0.034472197
0000b0 f7 1e f9 0b 00 f4 f0 01 fe f7 fc 16 e0 14 eb 09
       -0.019390611 0.064635366 -0.015081586 0.023699636 0.0 -0.025854148 -0.034472197 0.0021545123 -0.0043090247 -0.019390611 -0.008618049 0.04739927 -0.068944395 0.043090247 -0.04524476 0.019390611
0000c0 dd 10 d7 0d f3 ef f3 11 17 f1 0c 00 f1 fd 14 11
       -0.07540793 0.034472197 -0.08833501 0.02800866 -0.02800866 -0.03662671 -0.02800866 0.03662671 0.04955378 -0.032317683 0.025854148 0.0 -0.032317683 -0.006463537 0.043090247 0.03662671
0000d0 fa f1 f6 ff fc e6 06 16 db 06 ed f6 cd d7 ec 0c
       -0.012927074 -0.032317683 -0.021545123 -0.0021545123 -0.008618049 -0.05601732 0.012927074 0.04739927 -0.07971696 0.012927074 -0.040935732 -0.021545123 -0.10988013 -0.08833501 -0.043090247 0.025854148
0000e0 d8 ff fa 06 ef f2 07 10 03 bf de ef d9 d5 ed dd
       -0.08618049 -0.0021545123 -0.012927074 0.012927074 -0.03662671 -0.030163173 0.015081586 0.034472197 0.006463537 -0.1400433 -0.07325342 -0.03662671 -0.08402598 -0.09264403 -0.040935732 -0.07540793
0000f0 23 dc 05 10 00 f1 16 1a fc f4 fa e2 19 f0 e9 22
       0.07540793 -0.077562444 0.010772562 0.034472197 0.0 -0.032317683 0.04739927 0.05601732 -0.008618049 -0.025854148 -0.012927074 -0.064635366 0.05386281 -0.034472197 -0.04955378 0.07325342

model_2/conv2d_24/Conv2D_bias f4 [96]
000000 48 b5 bc 3b 17 e3 a8 3b 28 fc c1 36 a7 7b 3b 3b
       0.005758915 0.0051540243 5.781203e-06 0.0028607638
000010 93 a3 3e bb 6b e8 a0 3b 84 50 79 3b ea b5 36 3d
       -0.0029089197 0.004910519 0.0038042376 0.04460708
000020 10 5b 7a 3b 17 34 91 3b f5 ea 09 bb e0 71 ec 3a
       0.003820125 0.0044312584 -0.0021044586 0.0018039308
000030 98 0e eb 3c fd e5 8e ba 76 b8 f3 3c 05 9d aa 3b
       0.028693482 -0.0010902282 0.029751044 0.0052067065
000040 74 fa 72 3b 90 71 04 3c 49 96 c2 3c df c0 3c 3b
       0.0037075551 0.008083716 0.023753302 0.0028801484
000050 f7 59 c8 3b ad 54 94 bb f7 7c c4 3b 88 29 48 3c
       0.0061142403 -0.0045266957 0.0059963423 0.012216933
000060 d4 0a cb 3c e0 13 03 bb 5c a5 4a 3b 3a 79 05 ba
       0.024785437 -0.002000086 0.0030921316 -0.00050916115
000070 b3 f2 84 3b 18 a2 c2 3b 89 e8 3e 3b 01 76 83 3b
       0.0040572523 0.0059397332 0.00291303 0.00401187
000080 25 76 96 bc bd 5d ae 3b e8 3d 93 3b f5 f0 82 3b
       -0.018366883 0.005321233 0.004493464 0.0039960095
000090 3c d2 90 3b 08 5d f0 3c d3 ea 87 bc a0 f0 3c 3b
       0.004419593 0.029341236 -0.016591465 0.0028829947
0000a0 e5 f0 d9 3a e7 3e 1c 3b eb 58 d6 39 17 9c 4a 3b
       0.0016627578 0.0023841204 0.0004088351 0.003091579
0000b0 e1 cb 1a bb d3 bd e3 3b ff 49 97 3b 24 9f 0f bc
       -0.0023620056 0.006950119 0.0046169753 -0.008765969
0000c0 d3 9f e8 bb b7 37 3d bc 10 f5 81 3a d1 79 a2 3b
       -0.0070991307 -0.011548928 0.0009914953 0.0049583693
0000d0 ac 41 6f 3b 2b 8a 19 bc 49 e1 0a 39 2e a7 b1 3b
       0.003650765 -0.009371321 0.00013244631 0.0054215407
0000e0 43 8d 43 3b dc 84 ba 3c e3 bf ae ba 0f f6 91 3b
       0.0029838837 0.02276843 -0.0013332333 0.0044543813
0000f0 f0 18 cf bb ad 3d d2 3c b6 ec 77 bb f1 1e 19 3b
       -0.0063201115 0.025664175 -0.00378303 0.002336439
000100 1d 71 1f bc d6 de 12 3c f1 2a 9a 3a 51 9a 1e 3b
       -0.009731558 0.008964261 0.0011762065 0.0024200866
000110 ae 9f 31 3a 05 ea d2 3b ad 7b 8c 3b f4 28 5e bb
       0.0006775808 0.0064365887 0.0042872042 -0.0033898922
000120 53 ea 49 3b 33 a7 a8 3b 92 74 ea 3c dd 15 e3 3c
       0.0030809834 0.005146885 0.028620038 0.027720386
000130 fb 64 a9 3c 2e 15 53 3c 6d c9 83 3c 9f a2 80 3b
       0.020678034 0.012883468 0.016087258 0.003925636
000140 a3 8a 86 3b ce a3 6f 3b 1e c1 cc 3b 27 6c a7 ba
       0.0041058823 0.003656614 0.0062486073 -0.0012773321
000150 08 a5 75 ba ac d0 82 3b ad e4 c7 3b ed 1a 7e 3b
       -0.00093706 0.003992161 0.0061002583 0.0038773373
000160 50 10 97 39 5e 8d bc bc b5 d0 d0 3b ac 19 3d bc
       0.00028813118 -0.023016628 0.006372536 -0.011541765
000170 1c 95 6d 3a 39 0b 31 bb 9c cd 93 3b 37 4f 90 3b
       0.00090630515 -0.0027014746 0.0045105945 0.0044039744

model_2/conv2d_25/Conv2D/ReadVariableOp f4 [1, 3, 3, 48]
000000 22 c6 d1 3d b0 4b ca 3d 86 13 7b bc db 8b 19 3c
       0.10242869 0.098777175 -0.015324479 0.009371723
000010 c2 13 fa 3d b6 eb e7 3c 40 0b 4c 3d a8 da 7e 3d
       0.122108 0.028310638 0.049815416 0.062220246
000020 72 f0 45 3d 94 05 c2 bd 19 a4 91 3d 37 cc f8 3d
       0.04832501 -0.0947372 0.07111377 0.12148326
000030 57 15 7f 3d cc c3 6c 3d 39 e3 9a bc 6f c1 58 bd
       0.06227621 0.057803914 -0.018907176 -0.052918848
000040 94 88 89 bd da 6d d6 bd 20 d8 c1 3d 18 05 74 bc
       -0.06715503 -0.10470171 0.09465051 -0.014893793
000050 8b d4 63 bb 54 61 43 3d e0 d3 d0 bc f6 94 86 bc
       -0.0034764137 0.04770024 -0.025491655 -0.016428452
000060 9c 8f 69 bb fe fd 83 3d 57 ed fc 3b 4e f5 90 3d
       -0.0035638576 0.064449295 0.007718723 0.07078038
000070 05 7b c5 3d 40 d1 ac bd 27 b9 a3 3d 48 9a 0a 3e
       0.09642605 -0.08438349 0.079942994 0.13535416
000080 6a d5 af bc fa 06 f5 3d 43 3b 4a 3d dd 8f 83 bd
       -0.021464068 0.11964221 0.049372923 -0.06423924
000090 ce b8 dc 3d 49 47 4b 3d 68 6d d2 3c f7 2a 34 bc
       0.10777436 0.04962853 0.025686935 -0.010996572
0000a0 dc af 99 bd cf 39 30 3d a0 d1 22 be e4 71 af 3d
       -0.07504246 0.04302388 -0.15900278 0.08566645
0000b0 8c 1d 25 bd d1 a2 af 3d 97 aa 48 bd ff 5d 52 3d
       -0.04031138 0.08575977 -0.048990812 0.051359173
0000c0 d2 8b 23 3d d6 02 f7 3d a3 bd fc 3d cf b8 95 bc
       0.039928265 0.12061088 0.12340858 -0.0182766
0000d0 f9 12 94 3c 57 17 6f bd b5 2c f1 3d 73 74 6f bd
       0.018075453 -0.058371868 0.11776105 -0.058460664
0000e0 13 56 12 3c e5 56 71 bd c2 7c 1e 3d 65 15 c6 bd
       0.0089316545 -0.05892076 0.038693197 -0.096720494
0000f0 91 44 33 bd 22 f5 d8 bd c9 cd 04 3c 30 d6 35 3d
       -0.043766562 -0.105936304 0.008105704 0.04439372
000100 cc 8d fd 3c 30 99 a3 bd 0e 98 e3 3d 02 28 88 bd
       0.030951403 -0.079882026 0.111129865 -0.06648256
000110 80 4d e3 bd df cd d7 bc cc 29 9b bd 55 d3 9e 3c
       -0.11098766 -0.026343284 -0.075763315 0.01938788
000120 55 62 9e 3d 12 90 ba bd e2 0b e5 3d d3 33 60 3d
       0.07733599 -0.091095105 0.11183907 0.054736923
000130 66 20 c6 3d c6 f7 92 3d 12 26 ec 3c bf e3 f8 3d
       0.09674148 0.07176165 0.028826747 0.12152814
000140 c8 bc 5c bd d2 64 9e bd 87 5c b4 3d 40 25 45 bc
       -0.053890973 -0.07734074 0.08806711 -0.012032807
000150 63 b1 91 3d e5 93 2f bd 40 d3 9e 3d 77 3c 43 3d
       0.07113912 -0.042865653 0.077551365 0.047665086
000160 ac fa 94 bc e8 ca c7 3d af 9b 36 3d e4 34 9c bd
       -0.018185936 0.09755498 0.044582065 -0.076272756
000170 75 e7 87 3d 2e 85 9b 3d 34 4b 01 3e d9 3f 7e bc
       0.06635944 0.075937614 0.12626344 -0.015518152
000180 d3 63 ea bd 01 a7 97 bd a7 ed f3 bb 89 c1 47 3d
       -0.11444821 -0.074049 -0.007444102 0.048768554
000190 f3 ef 1b 3d b9 fa 59 bd c4 18 a4 3d 75 91 b5 bd
       0.03807063 -0.053217623 0.08012536 -0.08865634
0001a0 a1 02 53 3c 1e 66 56 bd 04 3b b3 bd e1 9a 25 bd
       0.012879045 -0.05234348 -0.08751491 -0.040430907
0001b0 47 f8 ce 3d ca 72 d3 3c 30 5a 01 3d f0 54 6d 3d
       0.10105949 0.025811572 0.03158015 0.05794233
0001c0 3a c3 26 3c d4 ff 0a 3d be 67 77 bc b8 56 44 3d
       0.010178382 0.033935383 -0.015100418 0.047934264
0001d0 ea 7e 98 3d 8c f0 c8 bd a6 0a 56 3d 1e e5 f3 bc
       0.07446082 -0.09811506 0.05225625 -0.029772338
0001e0 a6 e5 9c 3d d4 ea 81 3c e6 2b f5 3b 0f f8 fa 3d
       0.076609895 0.015859045 0.0074820397 0.12254345
0001f0 41 bc fc 3d 74 c7 d1 3d fb 67 71 bd cd ee 55 bd
       0.12340594 0.10243121 -0.058937054 -0.05222969
000200 e9 79 cf 3d 24 7d 4d 39 c7 e9 8a bc 49 20 d5 3d
       0.101306744 0.00019596942 -0.016957177 0.104065485
000210 d4 2d 84 3d 4a 36 a2 3d 0c f7 c3 bd 98 8f ad bd
       0.064540535 0.07920511 -0.09568605 -0.08474654
000220 c5 1b 3d bd c8 26 a7 bd 74 a4 38 3d 83 bf ef 3d
       -0.04616906 -0.08161694 0.04507871 0.1170645
000230 a7 1a db 3d 47 84 94 ba fe 90 e6 3d 27 e2 92 bd
       0.10698443 -0.0011330926 0.11258124 -0.071720414
000240 67 8e 84 bd 2c 53 02 3e 2e 16 1b 3e 44 69 5a bc
       -0.064724736 0.1272704 0.1514518 -0.013330761
000250 14 4d a6 bd 54 78 6f bd 65 66 fd bc 3d 1a c7 bd
       -0.0812017 -0.058464363 -0.030932615 -0.097218014
000260 8c fa 54 bd d9 b9 be 3d 74 c7 e6 3d 59 cd a8 3c
       -0.051996753 0.093127914 0.112685114 0.02060573
000270 f5 f5 67 3d 2f fc d7 bd 39 10 9d bd 82 91 f6 3d
       0.056631047 -0.10546147 -0.0766911 0.12039472
000280 c0 31 bc 3d 68 d6 18 bc 28 b4 4c bd 70 4c d9 bd
       0.091891766 -0.009328462 -0.049976498 -0.106102824
000290 cf c1 e1 3d df e5 2c 3d 58 06 3f 3d 75 d9 f5 bd
       0.11023294 0.04221141 0.04663691 -0.12004367
0002a0 ad bd 94 ba 7b ad b1 3d 2b 59 a6 3d 30 53 23 3d
       -0.0011348032 0.08675667 0.08122476 0.039874256
0002b0 55 1b f7 3d 08 a7 85 bd 8f 25 91 3d d6 9f 02 3e
       0.1206576 -0.06525999 0.07087242 0.12756285
0002c0 dd e8 83 bd 0b 93 93 3d 99 cc a1 3d ee 52 9c bd
       -0.064408995 0.072057806 0.07900352 -0.07633005
0002d0 bc d5 a4 3d 27 31 db 3d bb 53 8b 3c 5e 4b 0b 3d
       0.08048579 0.107027344 0.0170077 0.034007423
0002e0 2c 05 ac bb 2c 2f 06 3c 71 da f2 bd 0c 53 a4 3d
       -0.00524964 0.008189958 -0.11858071 0.080236524
0002f0 3a f9 84 3c 4a e0 02 3e fd fe f3 3d 5b 27 81 3d
       0.016232122 0.12780872 0.119138695 0.063063346
000300 3f e4 25 bd b0 32 85 3c 54 ad cb 3d 73 9c 42 3d
       -0.040500876 0.016259521 0.09945169 0.047512483
000310 35 0a 61 bd a0 d5 2d bc 5f dd ce 3d df 72 f2 3d
       -0.054941375 -0.010610014 0.10100817 0.11838316
000320 86 d7 ec bd 5f fc 37 3d 82 d2 f9 3d a2 32 98 bd
       -0.11564545 0.044918414 0.12198354 -0.074315324
000330 33 f0 b7 3d 7d 51 de bd a1 ff ff 3d 2a e0 08 3d
       0.08981361 -0.108553864 0.12499929 0.033416905
000340 c9 aa 01 bd 60 58 a0 bc 20 a6 8f bc d1 28 d6 bd
       -0.031657014 -0.01957339 -0.01753527 -0.10457004
000350 a6 fe 93 bd 0f 83 1f bc 44 2e a5 3d f9 74 66 3d
       -0.07226305 -0.009735837 0.08065465 0.056263898
000360 d9 7d 57 3d 8e 87 e3 3d aa 95 8f 3d e3 5e d9 bd
       0.052610252 0.111098394 0.07010968 -0.10613801
000370 c5 0d f5 3d 9f 99 cc bd 8f f4 34 bd 94 71 dc 3d
       0.11965517 -0.099902384 -0.04417854 0.10763851
000380 59 5b e1 3c d1 0a 99 bd 17 88 f1 3b 44 f1 bb bd
       0.027509378 -0.07472766 0.0073709595 -0.09176877
000390 ed 28 6a bd d9 d4 87 3d 3c 68 c2 3d ed e7 76 3d
       -0.057167936 0.06632394 0.094925374 0.060279775
0003a0 6d 5e 9c bd 86 50 13 3d 0f 69 28 3d fa 98 f1 3d
       -0.07635198 0.035965465 0.041115817 0.11796756
0003b0 c3 03 01 bd 7c 05 59 bd cb 2b 6d bd f3 89 c7 3d
       -0.031497728 -0.052983746 -0.057903092 0.097431086
0003c0 a4 93 69 3d f8 a0 8d bc e4 52 e2 3d 8d 7d e6 3d
       0.057025567 -0.01728867 0.110509664 0.11254416
0003d0 0f 84 53 3d 15 fb d7 3d 19 c1 53 3d 7f 11 ea 3d
       0.051639613 0.10545937 0.051697824 0.11429118
0003e0 50 a4 56 bb 09 6f dc 3b db 43 8e 3d 6d 48 33 3d
       -0.0032751746 0.0067271036 0.06946536 0.043770242
0003f0 e6 57 01 3e 50 84 d2 bd b9 e5 9a 3c f5 33 24 bd
       0.12631187 -0.10279143 0.018908368 -0.040088613

model_2/conv2d_25/Conv2D_bias f4 [48]
000000 7f e0 69 3d 03 f8 26 bc d2 86 a1 bd a3 f0 b9 bc
       0.05709886 -0.010190967 -0.07887043 -0.022697752
000010 11 0e 01 3c 51 64 00 3b e7 f1 18 3a e1 1f f7 3b
       0.007876889 0.0019591043 0.0005834386 0.007541642
000020 fc 50 07 3d 98 a0 ab 3c f2 0d 06 ba fc b6 3e 3b
       0.033036217 0.0209506 -0.00051137723 0.0029100766
000030 6d fc 8b bc 6b ca cc 3a 0c 64 98 3b 55 8e 96 3b
       -0.01708814 0.001562429 0.0046505984 0.004594604
000040 47 ee 8b 3b 00 00 00 00 7d 4b ef bc 00 00 00 00
       0.004270348 0.0 -0.0292108 0.0
000050 f6 d3 1c 3d 17 ba 0b 3c d9 9d 67 3b 92 ee a1 b9
       0.03828808 0.008528254 0.0035341887 -0.00030886062
000060 25 1e 81 bc e7 60 91 bc eb be cc bb f4 25 25 bc
       -0.015761444 -0.017746402 -0.006248345 -0.0100798495
000070 62 e6 d7 ba 66 97 3d 3d d1 43 e0 bc ea 8b 57 3c
       -0.0016471858 0.046286963 -0.027376087 0.013155917
000080 82 5b 01 3d cc 19 79 bb 3f 86 10 bc 6b 97 d1 39
       0.03158141 -0.003800976 -0.008821069 0.00039976402
000090 da 38 bc bc a9 b3 72 bd cd 96 83 bc 51 19 0f bc
       -0.022976328 -0.05925337 -0.016063118 -0.008734063
0000a0 fd d7 29 bc 43 fa e2 3b 50 b3 a1 bc 24 d1 24 bd
       -0.010366437 0.006926806 -0.019738823 -0.040238515
0000b0 6d 31 c1 bc bb 00 6b bb 0f c1 ae bc c8 74 46 b9
       -0.023583138 -0.003585859 -0.021332292 -0.00018926256

model_2/conv2d_26/Conv2D/ReadVariableOp i1 [48, 3, 3, 48] scale=0.0025303601 zero_point=0
000000 18 06 0f f2 f2 ec ee 03 1b fc 06 08 e6 e9 f3 e5
       0.060728643 0.015182161 0.037955403 -0.03542504 -0.03542504 -0.050607204 -0.045546483 0.0075910804 0.06831972 -0.0101214405 0.015182161 0.020242881 -0.065789364 -0.058198284 -0.032894682 -0.06831972
000010 fc 16 ed 07 f6 00 0b 0e 17 ee f3 f2 18 e1 0f 10
       -0.0101214405 0.055667922 -0.048076842 0.01771252 -0.025303602 0.0 0.027833961 0.03542504 0.058198284 -0.045546483 -0.032894682 -0.03542504 0.060728643 -0.078441165 0.037955403 0.040485762
000020 10 fc 03 0d e0 e8 0f 16 14 fb ef e4 e7 e8 0e ff
       0.040485762 -0.0101214405 0.0075910804 0.032894682 -0.080971524 -0.060728643 0.037955403 0.055667922 0.050607204 -0.012651801 -0.04301612 -0.07085008 -0.063259006 -0.060728643 0.03542504 -0.0025303601
000030 f4 f5 fa f9 f8 f6 e1 f1 ee fe 1b 1c df f8 12 14
       -0.030364322 -0.027833961 -0.015182161 -0.01771252 -0.020242881 -0.025303602 -0.078441165 -0.037955403 -0.045546483 -0.0050607203 0.06831972 0.07085008 -0.08350188 -0.020242881 0.045546483 0.050607204
000040 03 fe f1 05 ee 07 19 e5 1b f0 0b 0f e2 0e f2 f4
       0.0075910804 -0.0050607203 -0.037955403 0.012651801 -0.045546483 0.01771252 0.063259006 -0.06831972 0.06831972 -0.040485762 0.027833961 0.037955403 -0.07591081 0.03542504 -0.03542504 -0.030364322
000050 00 0c e4 12 0f f2 e3 ef 19 f4 e5 f2 dc f1 08 ec
       0.0 0.030364322 -0.07085008 0.045546483 0.037955403 -0.03542504 -0.07338044 -0.04301612 0.063259006 -0.030364322 -0.06831972 -0.03542504 -0.09109297 -0.037955403 0.020242881 -0.050607204
000060 eb ec 01 e3 16 e6 f6 1d 02 12 ef df f7 e8 15 0c
       -0.053137563 -0.050607204 0.0025303601 -0.07338044 0.055667922 -0.065789364 -0.025303602 0.07338044 0.0050607203 0.045546483 -0.04301612 -0.08350188 -0.022773242 -0.060728643 0.053137563 0.030364322
000070 1f ea e6 e5 14 e8 08 06 e4 f5 09 f1 fd fc f3 f2
       0.078441165 -0.055667922 -0.065789364 -0.06831972 0.050607204 -0.060728643 0.020242881 0.015182161 -0.07085008 -0.027833961 0.022773242 -0.037955403 -0.0075910804 -0.0101214405 -0.032894682 -0.03542504
000080 04 09 f9 06 ec e0 f9 1f f9 ea 04 fb ed 18 e2 04
       0.0101214405 0.022773242 -0.01771252 0.015182161 -0.050607204 -0.080971524 -0.01771252 0.078441165 -0.01771252 -0.055667922 0.0101214405 -0.012651801 -0.048076842 0.060728643 -0.07591081 0.0101214405
000090 0d f9 09 0d 13 f0 e2 17 11 1a 01 e6 1c 18 fc f3
       0.032894682 -0.01771252 0.022773242 0.032894682 0.048076842 -0.040485762 -0.07591081 0.058198284 0.04301612 0.065789364 0.0025303601 -0.065789364 0.07085008 0.060728643 -0.0101214405 -0.032894682
0000a0 e0 06 e3 18 14 f6 1b 1f f8 fd f6 e5 05 df e5 f5
       -0.080971524 0.015182161 -0.07338044 0.060728643 0.050607204 -0.025303602 0.06831972 0.078441165 -0.020242881 -0.0075910804 -0.025303602 -0.06831972 0.012651801 -0.08350188 -0.06831972 -0.027833961
0000b0 03 00 de 09 f4 1c 1b ea 17 15 ec f6 f6 e9 07 14
       0.0075910804 0.0 -0.08603224 0.022773242 -0.030364322 0.07085008 0.06831972 -0.055667922 0.058198284 0.053137563 -0.050607204 -0.025303602 -0.025303602 -0.058198284 0.01771252 0.050607204
0000c0 15 ec 0e 00 e3 e8 f8 06 1c 1d e0 fe 0e 18 0c 1a
       0.053137563 -0.050607204 0.03542504 0.0 -0.07338044 -0.060728643 -0.020242881 0.015182161 0.07085008 0.07338044 -0.080971524 -0.0050607203 0.03542504 0.060728643 0.030364322 0.065789364
0000d0 1e 15 f3 15 f6 0e f1 01 08 e5 f6 f6 e5 04 f0 ea
       0.07591081 0.053137563 -0.032894682 0.053137563 -0.025303602 0.03542504 -0.037955403 0.0025303601 0.020242881 -0.06831972 -0.025303602 -0.025303602 -0.06831972 0.0101214405 -0.040485762 -0.055667922
0000e0 eb 19 14 21 03 0f f7 0f f8 e0 06 fc de 15 1a ec
       -0.053137563 0.063259006 0.050607204 0.08350188 0.0075910804 0.037955403 -0.022773242 0.037955403 -0.020242881 -0.080971524 0.015182161 -0.0101214405 -0.08603224 0.053137563 0.065789364 -0.050607204
0000f0 ea 13 e6 04 1f 1f 0c 1d eb 10 12 ed 18 16 e4 ff
       -0.055667922 0.048076842 -0.065789364 0.0101214405 0.078441165 0.078441165 0.030364322 0.07338044 -0.053137563 0.040485762 0.045546483 -0.048076842 0.060728643 0.055667922 -0.07085008 -0.0025303601

model_2/conv2d_26/Conv2D_bias f4 [48]
000000 ac a2 8e bb b9 dd b1 bb 46 41 9b bd fb c1 af 3a
       -0.004352888 -0.0054280427 -0.07580809 0.0013409251
000010 d1 1b 9b ba 76 bb 80 3d 37 2b 16 bc f8 2b 46 bb
       -0.0011833851 0.06285755 -0.009165577 -0.003023861
000020 de 3b a1 bb 35 bc ae bb de e2 97 bc 4d cc b1 bd
       -0.004920467 -0.0053324946 -0.018540796 -0.086815454
000030 e6 1c 3e 3d 0a 2e a2 bb 0a db c1 3a 76 e2 b7 39
       0.04641428 -0.004949336 0.001479001 0.00035073207
000040 a4 a6 9b bc db e3 d7 b9 b7 c7 84 b9 69 28 57 bb
       -0.019000359 -0.0004117776 -0.000253258 -0.0032830483
000050 49 f7 60 3b 30 db 86 bb 65 51 0f bc 0b b8 bc 3a
       0.003432708 -0.0041154847 -0.008747433 0.0014398111
000060 b4 06 62 3b 82 7a 3a 3c 9f 5b c1 3b 6c ed 34 ba
       0.0034488859 0.011381747 0.0059008147 -0.00069018337
000070 69 86 a3 3b 0a a1 e8 bb 7b 24 ab 3b 64 1e ac bc
       0.004990388 -0.0070992755 0.0052228547 -0.021010585
000080 bf c2 bf 3b 5d 8c 9f ba f3 2d 72 bb e5 cd e1 3a
       0.005852073 -0.0012172569 -0.0036953657 0.0017227499
000090 15 9c 07 bc fa 2d 09 bc c9 59 3e 3b 64 95 2f 3c
       -0.008276959 -0.008372778 0.0029045215 0.01071677
0000a0 3e 4b 03 3d 8e 1b 82 bb 25 87 d3 3b 0a b7 9f bc
       0.03205418 -0.00397057 0.0064553195 -0.01949646
0000b0 85 ed 2b ba 37 33 c4 3d a3 d6 41 bc f8 52 ba ba
       -0.00065585255 0.09580081 -0.011830959 -0.00142154
